model/keypoint_classifier/keypoint_classifier.tflite (tflite, 6688 bytes, 6 tensors)

arith.constant f4 [7, 10]
00000000: 2eb8 bdbe cd7e 883f 63e2 70bf 0b7f 263e
00000010: f8bc 5f3e 2898 98bd 3548 67bf e38a 0b3f
00000020: 486d e43e e7fd d93d 7008 35be e0dc 9ebe
00000030: 0831 1dbe 3f9a edbb efdd 2d3e 6ec1 c53d
00000040: 245f 6c3f 00c4 2bbf 2179 003f 3d87 1cbf
00000050: 74ea 493f 6b27 36bd 73c5 d9be 770f 6ebf
00000060: 3bf6 a3be 5873 f1be b088 5c3e 4ccd a43f
00000070: e4ff c83e ffcd 9dbf 6a55 cc3c 564d f2be
00000080: 5c40 823f cf65 103f 1a21 673e ba57 08bf
00000090: 9973 9abf 5331 87bf de23 8cbf a9d2 9abd
000000a0: 7f6b e53d e5e1 463f f013 8bbe 3c42 c4be
000000b0: 02eb 45be 95f4 0bc0 66c6 0c3f 05b5 43bf
000000c0: fdf1 5abf 2ffc 5abf 18d7 7dbf 432f 85bf
000000d0: e01e 00bf 30f7 7e3f f47c 12c0 08f5 bb3e
000000e0: ff50 1f3e 6b97 cfbf 18ff d83e ccfc 9dbf
000000f0: b472 d1bf b678 6cbf 93c9 d5be dfc7 a6bf
00000100: c173 06bf 710e 153f 8950 193f b202 9ebe
00000110: 90b5 9fbe 2b90 503f
-0.3705458 1.0663697 -0.9409544 0.162594 0.2184943 -0.074508965 -0.90344554 0.545088
0.44614625 0.10644131 -0.17679 -0.3102789 -0.15350735 -0.0072510536 0.16979192 0.096560344
0.92332673 -0.6709595 0.5018483 -0.6114386 0.7887337 -0.044471186 -0.42533454 -0.9299235
-0.32023796 -0.47158313 0.21536517 1.2875152 0.3925773 -1.232849 0.024943072 -0.47324628
1.0175891 0.5640535 0.22571221 -0.5325886 -1.2066528 -1.0561928 -1.0948446 -0.075597115
0.11202144 0.7768844 -0.2716365 -0.38331783 -0.1932793 -2.186803 0.5499023 -0.7644809
-0.85525495 -0.8554105 -0.9915633 -1.0405048 -0.5004711 0.9959593 -2.2888765 0.36710382
0.15558241 -1.6218084 0.4238212 -1.2342772 -1.636313 -0.9237169 -0.4175535 -1.3029746
-0.52520376 0.5822516 0.5988851 -0.3086143 -0.3119321 0.8146998

arith.constant1 f4 [10, 20]
00000000: f63c 303f 917f 633e 7021 75be 8600 99be
00000010: 33a9 efbe a3ff d6be baba fabe ea50 d3bd
00000020: 53af 85bd b67b 6ebd f6a6 94bf 9b4c ab3d
00000030: 83de b93e 8f51 143f 74fa 353f f471 493f
00000040: 774f 0abe d3ab a33e 5ead c7be 527a e4be
00000050: f7ec d83d 5b1c 0ebf aed5 d1be 517f 84be
00000060: 6cf7 093f 6abd e8bd 713c b03c f1f5 e23e
00000070: 6991 12bf dc1f ca3e 1316 4a3f 333f 3c3f
00000080: 6968 bc3e b350 2dbf 9920 d8be c337 083f
00000090: 72e7 b23e ee85 193f 7ce8 ef3e cd99 6b3f
000000a0: c4e8 283f 3246 b63e 9faa 433e a077 03bf
000000b0: 8675 41be a713 a83e 710c b13e 5c69 d4bf
000000c0: 3159 f6be 15e8 97bf 0c29 1abd f3d5 da3e
000000d0: a465 1d3f 3b3a 2e3f 8d2c dd3e 86e5 c33e
000000e0: b5cb 0f3e e52c 823e 807d a7be 00df 233e
000000f0: c1e9 b83e ed28 1c3f b982 443f 46ab 00be
00000100: 6926 103f 88af 473e 3c74 0b3f 2cba 0abe
00000110: 9980 1a3f cc8d 2fbe ab31 703f b202 f73e
00000120: 19bb df3d beb3 4e3e dc1f 4f3f 28ba c33e
00000130: aa2a 8b3f ba44 293f 12ac 7a3f ab72 553f
00000140: 1a50 143f 5d3a 133e b012 8f3e 7c1a 80be
00000150: 3264 6c3f 9a42 953f a243 583f 32ae 8c3e
00000160: 1bad 413d a7d0 8cbd b20d 17be 73d7 6e3f
00000170: 4b02 373f d660 1abd 3bce ab3d a534 2d3f
00000180: 13fd c53d e0e7 a23f 702a b1bd 54c5 083e
00000190: f2f2 803e 7de4 213f 1425 f63e 3a7b 6f3f
000001a0: 2a44 283f 0483 733f 83e1 f53e 9d8d 393f
000001b0: ecae d83e 6994 293f 1cb7 2d3f 36d8 ffbb
000001c0: e972 1a3e 94cc 1a3f b4d0 533f 0371 e23d
000001d0: 3334 5b3f d10d 86bd c749 cb3c a20c 823f
000001e0: a814 4f3e fba1 173f 3639 8b3e 74df 8e3f
000001f0: ad11 f33e 7cac dbbe eb4f 94be 2d10 3c3f
00000200: e5e6 913f 6acb 0d3f fc35 773e 1077 b03d
00000210: 0701 1d3f 3b21 323f 86ac 663e c670 653e
00000220: 837a 0cbe 6bcd 73bd 87fc 06be 78cf f7be
00000230: 51e3 373e 7137 13bf 0227 81bf bf10 88be
00000240: 665a d1bd a007 acbf d89f bbbf f09e 8639
00000250: 048b a0be 34f1 d23e 1659 46bd d70e 66bf
00000260: dcf6 b73e ddcc 3d3d 3337 61bf 7f87 e5be
00000270: a34f 033e 74a5 cdbf 689b a4be 2067 9abe
00000280: 6455 a13e 2089 c53f bece 983d 7e80 133f
00000290: acdf b53f 7339 70bd d576 ab3d e364 f93e
000002a0: 6804 a7be f288 fd3e 863d 563f d363 043d
000002b0: c7ab 613e 9e1b 173f 31be db3e 6cc9 cc3d
000002c0: 411b 1940 a887 cabd b593 aa3d 3ae9 453f
000002d0: 5a8c 85be 61ec 45bf e53d 0b3f ff8c d3bd
000002e0: 9d28 1d3f d93c 223f 4418 9a3f 3e0d 103f
000002f0: 043d 303e b699 903e 8303 6b3e 5010 8cbe
00000300: 426d ebbe 4922 48bf 42b8 9cbd fe9d d83e
00000310: c4ca 51be 570d 0abf 289b 283f 44f7 41bf
0.6884302 0.22216631 -0.23938537 -0.29883212 -0.46808776 -0.4199191 -0.48970586 -0.103181675
-0.06527581 -0.05822345 -1.1613452 0.08364221 0.36302575 0.5793695 0.71085286 0.78689504
-0.13506876 0.3196703 -0.38999456 -0.44624573 0.105920725 -0.55512017 -0.40983337 -0.25878385
0.5389316 -0.11364253 0.021513196 0.44328263 -0.5725313 0.39477432 0.7893993 0.73533934
0.3679841 -0.6770126 -0.4221237 0.53210086 0.34942204 0.59969985 0.4685706 0.92031556
0.6598017 0.3560043 0.19108056 -0.5135441 -0.18892488 0.32827494 0.34579805 -1.6594653
-0.48114923 -1.1867701 -0.0376368 0.42741355 0.61483216 0.680576 0.43198052 0.3826105
0.14042552 0.25424877 -0.32712936 0.16003036 0.3611584 0.6099995 0.76761967 -0.12565336
0.5630861 0.19500554 0.54474235 -0.13547581 0.60352474 -0.17143935 0.9382579 0.48244244
0.10924358 0.20185754 0.8090799 0.38227963 1.0872395 0.66120493 0.9791881 0.83378094
0.57934725 0.14377733 0.27943945 -0.25020206 0.92340386 1.166095 0.844782 0.2747665
0.047284227 -0.06875735 -0.14751318 0.932975 0.71487874 -0.037690006 0.08388945 0.67658454
0.09667411 1.2727013 -0.086506724 0.13356525 0.25185353 0.6323927 0.48075163 0.93547404
0.6572901 0.9512179 0.48023614 0.7248171 0.42320955 0.6624208 0.6785753 -0.007807757
0.15082897 0.6046841 0.8274033 0.110567115 0.85626525 -0.06545604 0.024815453 1.0160105
0.20222723 0.5923154 0.27192086 1.1161942 0.47474423 -0.42905033 -0.28967223 0.7346218
1.1398588 0.5538851 0.24141687 0.08616459 0.6132969 0.69581956 0.2252675 0.22406301
-0.1371861 -0.059522074 -0.13182269 -0.48400474 0.17957808 -0.5750647 -1.0090029 -0.26575276
-0.1022232 -1.3439827 -1.4658155 0.0002567689 -0.3135606 0.41199648 -0.048424803 -0.89866394
0.35930526 0.04633795 -0.8797485 -0.44829938 0.12823348 -1.6066117 -0.32149816 -0.30156803
0.3151046 1.5432472 0.07461308 0.5761794 1.4208884 -0.058648538 0.08372275 0.48709783
-0.3262055 0.49518543 0.8368763 0.032321762 0.22038184 0.59026515 0.42918542 0.09999356
2.3922884 -0.098891556 0.08328954 0.77309 -0.26083642 -0.7731381 0.5439132 -0.10329627
0.61390096 0.63374096 1.2038655 0.56270206 0.17210776 0.28242272 0.22950558 -0.27356195
-0.45981795 -0.78177315 -0.07652332 0.42308038 -0.20487505 -0.53926605 0.6586175 -0.7576792

arith.constant2 f4 [7]
00000000: 832b 3abe 7dbe 68be 60be 233f 7995 51bf
00000010: 8a4f f23e e10f 9e3e a9ad cd3d
-0.18180661 -0.22728916 0.63962364 -0.818687 0.47326308 0.3087149 0.10042889

sequential_1/dense_1_2/BiasAdd/ReadVariableOp f4 [10]
00000000: c376 593f e8a6 233f 9b3b 413d e136 ac3d
00000010: d5f8 a63c 9331 4cbd 06f2 263f 1d50 3b3f
00000020: 107d a93e 78cd 623c
0.8494684 0.63926554 0.047175985 0.08408905 0.020382324 -0.049851965 0.6521305 0.7316912
0.33103228 0.013842933

sequential_1/dense_1/BiasAdd/ReadVariableOp f4 [20]
00000000: 5f95 34bf b401 7dbf da3d 81bf 38f7 6cbf
00000010: bc47 57bf 32d9 1abf f6a4 e6be 833d 21bf
00000020: bce1 60bf 3ced cc3d 2d10 07bf 31a4 84bf
00000030: 3d92 35bf 1295 41bf 74e1 69bf 5d72 56bf
00000040: d8f9 febe 80d5 42bf fafa f5be 8b78 e3be
-0.7054042 -0.98830724 -1.0097001 -0.92564726 -0.8409383 -0.60487664 -0.4504773 -0.62984484
-0.87844443 0.10006186 -0.5275906 -1.0362607 -0.70926267 -0.7561809 -0.9135964 -0.83768255
-0.4979999 -0.76107025 -0.48043042 -0.44427904

sequential_1/dense_1/MatMul f4 [20, 42]
00000000: 58d9 093e 83c0 20be edac 1dbf d7fa a4be
00000010: a6d3 8cbe 5ef8 6ebe b77d a2be c250 d0bd
00000020: fb70 b33d 7d71 27bd d977 273e 5466 07bf
00000030: 376b e3bd 0a83 5fbe 549d 28be f966 a53d
00000040: bdb8 d1bd 2314 893e dc26 7a3e 5192 06bf
00000050: 2a15 7e3c 2391 adbd 0531 94bc c7e9 973e
00000060: 0d9f f7bc 9aa6 c13e c88d 8c3e 6e4f 2abf
00000070: b221 b63c 6d72 a9be d8b3 333c 5119 023e
00000080: ac7c 72bd 755e 343e 1b42 ba3e 5501 13bf
00000090: bea2 f8bb 27f6 b4be eb43 acbd dab5 22bd
000000a0: c635 bcbd e88f 923d d8a4 8ebe 60d2 ec3c
000000b0: 61fe 963e 90a9 1dbf 4e98 853e b770 c2be
000000c0: 4128 383e cccc 1abf c3b0 123d a904 acbe
000000d0: 1e2c 923e 007a 01be d33e c43d 1c37 06bc
000000e0: fd14 cfbd 5813 fd3d 150e 22be 3f82 2d3e
000000f0: 5dc3 863e 6994 e8bd 1e56 a03c 9f1a 98bd
00000100: 6335 98bd ff34 c83d 9fe5 09be c8e0 2b3e
00000110: 1941 023e bdaf 01be 8a03 9a3d 2d3a 21be
00000120: 4f35 583c d1c3 a63d 3430 86bc edd6 da3d
00000130: f15f c83c f701 c7be 8ae3 a23d bb28 c2be
00000140: 1f98 063e f6b2 41bd 2c5f df3c 484c 893d
00000150: 2493 27be ecaf 2dbe 0ff1 6fbf 6735 89be
00000160: 441b d5be 2ad8 eebd e01c d8be 6c61 3cbe
00000170: c738 a0be 2da3 65be 5721 6bbe 124e 793d
00000180: 25fd 7f3c 07cb 5f3d a7ef 353e c25f 383e
00000190: 4a62 723e 2082 8d3e 5734 89be b863 833d
000001a0: 5fb1 58bd d8b4 8cbd cc31 713d 7620 14be
000001b0: f554 983c b947 78bc 11ae 9ebe 4066 303b
000001c0: 8e61 b2bc 2f4b 13be 9eb4 ddbc 179f 75be
000001d0: 722d 14be fd4c 2fbe 8970 9abe c6a6 90bc
000001e0: 9309 e5bd 6db2 23be 0edf 3c3a cae9 86be
000001f0: a564 febd 2729 3cbe 72fe 8e3e 006b 7d3c
00000200: 80e1 8e3f ffd5 753e fbfc f93e fa04 b83d
00000210: e7c6 c03e a382 10be c47d 633e 8ff2 26be
00000220: 756f ab3e a036 133f da1d 003e b1ef ce3d
00000230: bad9 dcbd 3d32 a63d 246a 53be ac63 203e
00000240: 60d6 983e dfec bf3e f6f9 b43d e224 4dbc
00000250: e4db 34be 2ba0 64bd 2a0d 8bbe 3b76 1fbd
00000260: fffc a73e 553f 413e 1fb8 5a3e 2a11 1bbd
00000270: c017 9ebd e72a 08be f306 29be 392b 99bd
00000280: 6769 ec3e bdaf d43c 23d7 ab3e 9dae ee3c
00000290: 03c1 d53d 89f7 10be 353d 9cbc 8d68 d0bd
000002a0: a46d 863d 6c9e 653e 91a5 703f 12ad 493d
000002b0: 0041 293f 5b91 a33d a140 2a3f ada8 2b3d
000002c0: cd3d 623f f460 813d 3b1a d93d ff36 dbbc
000002d0: fa85 e03b 9974 d63b e743 00be 338f 1b3d
000002e0: 9383 0ebe f4f7 d23c 72a1 093e f4df 9fbd
000002f0: 4905 90bc 3cc4 bcbc d112 733c a5c6 dbbc
00000300: 1f06 4d3d d94b 9bbd e247 313e 6700 87bc
00000310: 795e 1cbe 13ad 0bbd 994e 9fbe 9ddb f7bd
00000320: f5bc dfbe c93d 71be 87d2 2b3e 0dcb bd3d
00000330: 21cb 78be df02 d13d 23e1 1bbf 6a85 ae3c
00000340: 3406 75bf 691e 27be 80c9 4d3b 6efe 1e3e
00000350: 6910 88be 5f81 983e e005 06be f6cc ab3e
00000360: 45c6 31be 98fe db3e 3da5 c6bd aa7b ac3e
00000370: 072d a93e c1be 423e c423 c63d b296 c93d
00000380: 2959 11bc 7916 583d 0fe4 5ebc 72cb ab3d
00000390: 6bd0 8e3e 4ce8 113e 8994 cd3d df9a de3d
000003a0: b012 96bd c91e cebd a848 9bbd 5584 d1bd
000003b0: d81d 443e 4608 483d a009 873d 11b6 cabd
000003c0: cb89 f4bd 4621 c0be b7b0 5cbe b822 76be
000003d0: 0489 053d 33be f8bd d550 48bb 17a1 60be
000003e0: e98e 06be b94b 1ebf e119 39be 2869 3fbf
000003f0: 70d4 d4bc 700e 6bbe a2f3 c1bc 617f 663e
0.13461816 -0.15698437 -0.6159199 -0.32222626 -0.27505225 -0.23336932 -0.31736538 -0.10171653
0.08761784 -0.040879715 0.16354312 -0.52890515 -0.11104434 -0.21827331 -0.16466266 0.08076281
-0.10240314 0.26773176 0.24428886 -0.5256701 0.015507976 -0.08474948 -0.01808978 0.29670545
-0.030227209 0.3782242 0.2745192 -0.6652745 0.022232864 -0.33095112 0.010968171 0.1270497
-0.059200928 0.17614157 0.3637856 -0.5742391 -0.0075877598 -0.3534405 -0.08411392 -0.03972421
-0.09189944 0.07156354 -0.2786014 0.028908908 0.2949095 -0.61586857 0.26092762 -0.3797662
0.17984106 -0.60468745 0.035813104 -0.33597305 0.28549284 -0.12644196 0.09582295 -0.00819185
-0.10111425 0.12357205 -0.15825684 0.16944216 0.26320925 -0.11356432 0.019572314 -0.074269526
-0.07432058 0.09775733 -0.134665 0.16784966 0.12720145 -0.12664695 0.07520206 -0.15744849
0.0131963035 0.08142818 -0.016380407 0.10685525 0.02445981 -0.38868687 0.07953556 -0.379217
0.13143967 -0.04728981 0.027267061 0.067040026 -0.16364723 -0.1696164 -0.937272 -0.26798555
-0.41622365 -0.11662324 -0.4220953 -0.18396538 -0.31293318 -0.22425528 -0.22961937 0.06086547
0.015624319 0.05463698 0.17767201 0.18005279 0.23670307 0.2763834 -0.26797745 0.06415504
-0.05290353 -0.06870431 0.05888538 -0.14465508 0.018595198 -0.015153819 -0.30992177 0.0026916414
-0.021775033 -0.14384149 -0.027063664 -0.23986469 -0.14470461 -0.17119212 -0.30163983 -0.017657649
-0.11183467 -0.15986033 0.00072048686 -0.26350242 -0.1242154 -0.18375073 0.279285 0.015467405
1.1162567 0.24007414 0.4882582 0.08985324 0.3765175 -0.14112334 0.22215945 -0.16303466
0.33483472 0.57505226 0.12511387 0.10104311 -0.107837155 0.08115051 -0.20645958 0.15663022
0.29851055 0.37485406 0.08836739 -0.012521001 -0.17662007 -0.05581681 -0.2715848 -0.038931113
0.32810208 0.18871816 0.21359299 -0.037858166 -0.07719374 -0.13297616 -0.16506557 -0.07478947
0.46174166 0.025962705 0.33562574 0.029135996 0.10437205 -0.14156927 -0.019072155 -0.101761915
0.06563881 0.22423714 0.94002634 0.04923732 0.6611481 0.07986709 0.66504866 0.04190891
0.8837555 0.063173205 0.10600706 -0.026759623 0.0068519088 0.0065446612 -0.12525903 0.037978362
-0.13917379 0.025752999 0.13440493 -0.078063875 -0.017580645 -0.02304279 0.014836029 -0.02682812
0.050054666 -0.07582826 0.17312577 -0.016479684 -0.15270413 -0.034100603 -0.31114653 -0.12102435
-0.4369885 -0.23558725 0.16779529 0.092672445 -0.24296238 0.10205626 -0.60890406 0.021303851
-0.9571259 -0.16320194 0.003140062 0.15526745 -0.2657502 0.29786202 -0.13088179 0.3355481
-0.1736079 0.42967677 -0.096994855 0.33688098 0.33042166 0.1901808 0.096747905 0.09843196
-0.008871355 0.052755807 -0.013604178 0.083884135 0.27893385 0.1424877 0.100380965 0.10869383
-0.07327783 -0.100644656 -0.075822175 -0.102303185 0.1915201 0.048836015 0.06593633 -0.09898008
-0.119403444 -0.37525386 -0.21551786 -0.24036682 0.03260137 -0.121456526 -0.0030565758 -0.21936451
-0.13140453 -0.61834294 -0.18076278 -0.7476983 -0.025980204 -0.22954726 -0.023675743 0.22509529
